CatBot/data.pth (torch, 5847 bytes, 6 tensors)

l1.weight f4 [8, 72]
00000000: a736 393f 246d bf3e 9a8e 94be 4155 a8bd
00000010: c7ff 8dbe ddff 53be cb6d 4bbf 9acc 333f
00000020: 35c8 abbe 23b2 4abe 2068 ecbe 7260 e13e
00000030: b2b3 aa3e d06e 9d3e 03e4 b9be 6f64 c5be
00000040: 2961 4cbe 48d6 50bd cdf8 ce3e 0f4c e33c
00000050: 16f0 143d daae ab3e 6338 afbe 3d90 323f
00000060: 3ad3 ab3e 1e8c 0dbf 47a2 183f 9e9b 0abf
00000070: d9d3 0bbf 96f3 833e 369e 9dbd 8236 833e
00000080: c8fa 7a3c 3e8f ae3d 29e2 193e 4a0a 423e
00000090: c62b 6dbe 8178 eabd 3186 c2be f859 cb3e
000000a0: cb81 283f 6620 f3be e9d3 a8bd c84f c43e
000000b0: a86f 0e3e 9f6d 4b3e fae7 2b3d ec77 00bf
000000c0: 3376 99be bbf6 34be 217b 9fbe 67fb 2c3e
000000d0: 58f1 d4bc 84af 1e3f b090 d83e 30a6 243f
000000e0: b9ea 113e 2e8a 87bc 413b 91bd d5d5 af3e
000000f0: a1bd 3fbe da6b 17be 3727 8b3f dfd4 103f
00000100: b375 c6be a012 6b3e ea44 c2be 1ec8 18be
00000110: ef05 603e 3be1 3cbe c1c2 5d3e d57e f03e
00000120: 6f7a 38be a032 03bf 3c77 133f ed93 b93e
00000130: 155d 8b3e 1e43 54bd ea7a 603f 2b16 e0be
00000140: e749 c13e 799d eb3e 8bec 2c3f e219 46be
00000150: c61b 04bf 4a08 b8be b60a 3a3f efce 003f
00000160: 0e02 953e 9ed2 e23e 0e1f 46be 2d3a f53e
00000170: 49b9 5dbe a453 55be 42b5 a43e 750d e0be
00000180: cada 92be 2a7d 003f 22c5 71be c088 eb3e
00000190: 2d2b fd3e c406 efbe abb7 9e3d cf49 abbd
000001a0: c75a 7f3e b4e9 363f 0633 853d 6a9a 61be
000001b0: 8996 cbbe 3e8f 02bf 2e33 80be c84e a4be
000001c0: 128d 8bbd 6f79 d83e 534e a1bd d56a e4be
000001d0: bae0 53be 61e7 0dbe caea 923e 9728 b33e
000001e0: 5e02 263f 3c19 083f 9760 e13e 37bd 5c3d
000001f0: 39b7 713e 9cbd d7be af03 bdbe 4738 813e
00000200: d59c bbbd a622 a4bd 81db 363e fb09 e0be
00000210: 634c f93e 64d7 7fbd cac8 20bf cdb7 acbc
00000220: 874f 8a3e 9ebe c1bd e7c2 123f 0d3f b53e
00000230: 2c02 45be 26fd 043f db8e f33e 1fdf d0bc
00000240: 92cd ee3e 716f 833b b0ab b33e 24f5 d93d
00000250: 6998 bf3e e537 8c3e 3026 a93e e576 6c3f
00000260: 5704 813e 2209 cd3e d3c1 b23e 6036 4ebe
00000270: 3836 2f3e 5fec 0d3f 382c 0b3e 53bf d63e
00000280: c122 463e c68b 19bc e543 373f 757e fabc
00000290: cb81 99bd 688e 983e cdf5 183d e733 5c3f
000002a0: 7c2c e0be c628 8c3e e9b7 103f 683c 583d
000002b0: eb8b 7bbe a67c bc3e 03f7 023e 462e cf3e
000002c0: 95eb c33c ece2 8abe 3674 7e3e d0e2 a53d
000002d0: 0708 8cbe 9802 d5be 3230 bfbe 1f32 a1bc
000002e0: ccf6 6d3e eff2 aa3e e795 1fbe a316 4cbe
000002f0: 4bfb f23d addb 8a3e 69c1 fcbc 5469 213e
00000300: b26c e23e 3d9d b53e ad9b a53e c6ed 3bbe
00000310: 8aca a4bd fb4a cebd 0c4c 4ebe f27d 17bf
00000320: 1a12 bf3e 295a 1cbd 09ae 14bd 2d7c 043f
00000330: ba52 c63e 4ad0 18bc 9538 003f b0e5 b33e
00000340: 1565 293e 90ef 0abd df86 df3e 3ee3 8fbe
00000350: 3c6c fb3d 4dbf 693e 9ae3 e03e c032 9a3c
00000360: 207d 233f 7941 283f 390d ec3e 67f6 1c3e
00000370: 0dc2 94be 0eb9 5bbe d952 073f 8428 0c3f
00000380: 099b 003f a06b 943e aff7 1d3f 4eb2 823d
00000390: be19 13bf e32f 6ebe 184c 153f 7dfa ac3e
000003a0: 4a04 a6be ec45 8f3e 262f 88be 46bd 6c3e
000003b0: 56aa 113f f2e8 bebe 12f9 aabe 5cb1 213f
000003c0: 015c 9b3e e2ee 12bf 330b 013f 6c91 24bf
000003d0: 1ba6 2dbf 62d9 22bf d734 cfbe 3ec9 ddbe
000003e0: ad0f da3d f374 f43e 4051 cebe 2682 13bd
000003f0: b7c6 0b3f cf9f 0a3f 1f54 7e3e d568 ee3e
0.7234902 0.37387955 -0.29015046 -0.08219386 -0.27734205 -0.20703073 -0.79464406 0.7023407
-0.33551183 -0.19794516 -0.4617319 0.44018894 0.33340222 0.30748606 -0.36306772 -0.38553187
-0.19958939 -0.050985605 0.40424195 0.027746229 0.036361776 0.3353184 -0.34222707 0.6975134
0.3355959 -0.55291927 0.59622616 -0.54143703 -0.5462013 0.2577178 -0.07696192 0.25627524
0.01531858 0.08523415 0.1502768 0.18949237 -0.2316123 -0.114487655 -0.37993005 0.39717078
0.6582305 -0.47485656 -0.08243544 0.38342118 0.13909781 0.19866036 0.041969277 -0.50182986
-0.2997299 -0.17672245 -0.31148627 0.16892777 -0.025993988 0.61986566 0.42297888 0.6431608
0.14249696 -0.016545381 -0.0709138 0.34342828 -0.18724681 -0.14787236 1.0871342 0.56574816
-0.38761672 0.22956324 -0.37943202 -0.14920089 0.21877263 -0.18445294 0.21656324 0.46971765
-0.18015455 -0.5124912 0.5760381 0.3624567 0.27219453 -0.05182182 0.8768755 -0.43766913
0.37751696 0.4601858 0.67548436 -0.19345811 -0.5160488 -0.35943824 0.72672594 0.50315756
0.2910313 0.44301313 -0.19347784 0.47895947 -0.21652712 -0.20832688 0.3216954 -0.43760267
-0.28682548 0.50190985 -0.23610356 0.4600277 0.49447003 -0.4668485 0.07749876 -0.08363687
0.24936973 0.7145035 0.065038726 -0.2203156 -0.39763287 -0.5099982 -0.25039047 -0.32091355
-0.068140164 0.42280146 -0.07876267 -0.44612756 -0.20691195 -0.13857795 0.28694755 0.34991905
0.6484736 0.53163505 0.44019005 0.053891387 0.2360505 -0.42136848 -0.36916873 0.2523825
-0.09160773 -0.08014421 0.17857172 -0.43757614 0.4869109 -0.062461272 -0.6280638 -0.021083737
0.270138 -0.094601855 0.5732865 0.35399666 -0.1923911 0.51948774 0.47569928 -0.025497017
0.46641213 0.0040110876 0.35091925 0.1064246 0.37420967 0.27386394 0.33036947 0.9236892
0.25198624 0.4004603 0.349135 -0.2013793 0.17110527 0.554388 0.13591087 0.41942844
0.19349195 -0.0093717035 0.71587974 -0.030577878 -0.07495459 0.29796147 0.03734379 0.86016697
-0.4378394 0.27374858 0.56530625 0.052791983 -0.24565093 0.3681385 0.1278954 0.4046499
0.023916045 -0.27126253 0.24849018 0.08099902 -0.27349874 -0.4160354 -0.37341458 -0.01967722
0.23238677 0.3338847 -0.15584527 -0.1993051 0.118643366 0.27120724 -0.030853944 0.15762836
0.44223553 0.35471526 0.32345334 -0.18352422 -0.08046444 -0.10072895 -0.20146197 -0.5917655
0.37318498 -0.03817192 -0.036298785 0.5175198 0.3873499 -0.009327004 0.5008634 0.35136175
0.16542466 -0.03391987 0.43657586 -0.2810306 0.122765034 0.22826882 0.43923646 0.018823028
0.638628 0.65724903 0.46103838 0.1532837 -0.290543 -0.21457312 0.5286079 0.5474932
0.50236565 0.2898836 0.6170606 0.06381665 -0.57461154 -0.23260455 0.58319235 0.33784857
-0.32425147 0.27983034 -0.2659847 0.23119077 0.56900537 -0.37287098 -0.3339315 0.63161254
0.3034363 -0.57395756 0.50407714 -0.64284396 -0.6783158 -0.6361295 -0.4047 -0.43317598
0.10647521 0.47745475 -0.40296364 -0.03601279 0.5460009 0.541501 0.24836777 0.46564355

l1.bias f4 [8]
00000000: 1b7c 403f 7b0c e03e 08da 393f 17a8 2d3f
00000010: a30c 613f 9f89 663f 5cea 1f3f 8c4d 0d3f
0.7518937 0.43759522 0.72598314 0.6783461 0.8790991 0.90053743 0.6246698 0.5519645

l2.weight f4 [8, 8]
00000000: aaa6 763f 79d3 613d 1421 103f 50fd f3bb
00000010: 5297 523c 30a5 6dbf 95de fa3d 6db3 c63f
00000020: dfbc 683f 876d 7ebf 1bd1 663f 24ac 8a3f
00000030: af42 7fbf ee29 66be fb65 163f 187c 7ebf
00000040: b955 96bd 589d 713f dcc6 863e cd23 7d3f
00000050: e53e 35bf 8f6d 283e 6d63 9b3f e16b 2b3f
00000060: c0b5 0dbf aa0c 0d3f 908a fc3d eb3c bd3e
00000070: 5d49 2ebe 57fd 083f 8e08 203f dd39 e5be
00000080: d232 8dbe c6e4 e63e d9bd 983f 2572 343f
00000090: dbc4 363f 2f4e 9c3f 49af 09bf edce 81bf
000000a0: bf7b d4bf 129e 7a3f 6218 053f 5769 1abf
000000b0: 40b1 413f 39b3 a23f 7f72 8b3e f55c 293e
000000c0: e565 a93e be27 09bf b1c9 d03e 34f7 a0bf
000000d0: 3c55 ab3f 90b7 ab3f bfb3 b0bc 16d5 7d3f
000000e0: 90c0 583f f7ec 0dbe 1365 883f dbbe 0d3f
000000f0: 44b9 4e3f 1812 c43e b248 70bf 4e46 9cbf
0.9634806 0.055133317 0.56300473 -0.0074459687 0.01285346 -0.9283018 0.122494854 1.5523506
0.90913194 -0.99385875 0.9016282 1.0833783 -0.99711126 -0.22476932 0.5874936 -0.994081
-0.07340569 0.9438071 0.26323593 0.9888275 -0.70799094 0.16448043 1.2139717 0.66961485
-0.55355453 0.5509745 0.12331116 0.3696054 -0.17020173 0.53511566 0.62513053 -0.4477071
-0.27577835 0.45096415 1.1932937 0.7048667 0.7139413 1.221136 -0.5378309 -1.0141274
-1.6600264 0.97897446 0.5199033 -0.60316986 0.7566109 1.2710944 0.2723579 0.16539367
0.33085552 -0.53576267 0.40778878 -1.257544 1.3385386 1.3415394 -0.021570085 0.9915327
0.8466883 -0.13859926 1.0655845 0.5536935 0.8075144 0.38295054 -0.93860924 -1.2208955

l2.bias f4 [8]
00000000: cc39 a93e a11b b93e bbab aa3e 1ee2 82bd
00000010: 1666 163f 7c98 06bd 6580 363f 5b10 de3e
0.33051908 0.36153892 0.33334145 -0.06390785 0.5874952 -0.032860264 0.71289665 0.43371853

l3.weight f4 [9, 8]
00000000: 6a02 8ebf dc6b 69bf 4b60 a13e a7e5 683f
00000010: f8b3 263e 7765 0b3f ac67 a0bf 24ce a7bf
00000020: 2f9c d0bf b168 553f 9105 ba3e d7b6 c43e
00000030: ca30 8bbc bf70 01bf 241a 3dbf d70c 75bf
00000040: 82ba 1abf 557b d23d 355d d1be a5e8 6fbf
00000050: 03d9 0b3f 0fd0 a4bf 28e1 72bd e7e9 483f
00000060: 31c3 a5be b6ad 4ebf b8c2 7abc a4bd 04bf
00000070: e147 28be 1c43 3a3f ceea 2c3f f5e4 73bf
00000080: b9b7 d43e 1798 4cbf e590 553f 0361 44bf
00000090: 4a41 1bbf 75ae 37bf 36a7 2cbf f629 29bf
000000a0: 833e b3bf 1e48 9fbf 5d70 a3be 0fb0 243e
000000b0: 9290 dd3e 8077 023f 10c0 31bf 6236 d13e
000000c0: 9fdb 4a3f bb52 2bbf f661 36bf 1ef1 1dc0
000000d0: ce3a 87bf c66e 4fbf afdd 5b3f 49b5 4abf
000000e0: 080a 1bbf eb32 d3bf d6fd d7bf b812 24c0
000000f0: f5cb 833e 413f 1a3d 87b2 453f 707d 213f
00000100: 0292 043f 42c9 6a3f 2a79 19be d81b e8bf
00000110: 21aa 5cbd 3c9c 34bf 099c e1bf 5b4b f23e
-1.1094487 -0.91180205 0.31518778 0.9097542 0.1627959 0.544517 -1.2531638 -1.3109784
-1.6297663 0.8336287 0.36332372 0.38420746 -0.016991038 -0.5056266 -0.7386801 -0.9572272
-0.6044084 0.1027743 -0.40891424 -0.9371436 0.5462801 -1.2875994 -0.059296757 0.78481907
-0.32375482 -0.8073381 -0.015305214 -0.5185187 -0.1643367 0.7275865 0.67545784 -0.95271236
0.4154642 -0.7991957 0.83424217 -0.7671053 -0.606465 -0.71750575 -0.67442644 -0.6607965
-1.4003452 -1.2443883 -0.31921664 0.16082786 0.4327436 0.5096359 -0.6943369 0.40861803
0.79241365 -0.6692311 -0.71243227 -2.4678416 -1.0564821 -0.810284 0.8588514 -0.7918287
-0.6056218 -1.6499914 -1.687434 -2.5636425 0.25741544 0.03765798 0.77225536 0.6308203
0.5178529 0.91713345 -0.14987627 -1.8133497 -0.053873185 -0.70550895 -1.7625743 0.47323117

l3.bias f4 [9]
00000000: 2c65 6abd b021 6e3d 2077 93bd 1bad 81be
00000010: c619 243e 39c7 bebe 5933 b13e f0da 6bbe
00000020: 0cc4 cfbe
-0.05722539 0.058137596 -0.07200456 -0.25327381 0.16025457 -0.3726137 0.34609488 -0.23032737
-0.4057926
